~/tmp/Default/optimization_guide_prediction_model_downloads/09739d06-d5ec-4e69-8ef9-832ed9e7980f/model.tflite (tflite, 64852 bytes, 5 tensors)

arith.constant f4 [1, 64]
00000000: 241a 1d3e 43c5 8cba db22 18bd 22cf fc3d
00000010: 6e20 debd c2e2 733e 1bf3 7cbe 2a56 7bbd
00000020: 2340 cc3e 0f99 b53e 72e8 47be 92b1 883e
00000030: 7c00 c0bd f3ca bdbd 3bf3 043e c322 22be
00000040: 285f 8f3e f4ed 3fbe 5690 06be 17ec b03d
00000050: ed6e 7c3e 9296 c43e 6b3f 9dbe 0704 e7bd
00000060: 7665 42be dcab 61be c31f a9bd fd15 0c3e
00000070: 018c 0f3e b0f2 923d 4997 133e 59cd a1be
00000080: 9c3a 3bbe dc22 96be 3995 81be ca82 413e
00000090: cbcc 18be 421e d53e 48fa a23d a409 a13e
000000a0: bd48 82bd 3d0f 73be b3c2 cc3e 1868 bdbe
000000b0: 033b 5c3e e14d c03e 15c1 85be 5b66 06be
000000c0: 2e62 943e 6bf8 4fbd 0fc7 e4bd 2e28 b53c
000000d0: a32e 6abe 3f9d 373d a400 883e b64a 31be
000000e0: 7fc3 89be d4a6 903d 0e85 20be b5c0 1dbe
000000f0: e783 4b3c 7ec2 85be 5026 9bbe 0411 9bbe
0.15342003 -0.0010739941 -0.037142616 0.12344195 -0.10846029 0.2381697 -0.24702112 -0.06136147
0.39892682 0.35468337 -0.19522265 0.26697975 -0.093750924 -0.09267225 0.1298341 -0.15833573
0.28002286 -0.18743116 -0.13140997 0.086387806 0.2465169 0.38396126 -0.30712447 -0.11280065
-0.18984017 -0.22038215 -0.08258011 0.13680263 0.14018251 0.07175195 0.1441318 -0.3160198
-0.18284076 -0.2932347 -0.2530916 0.18897548 -0.14921872 0.41624647 0.079578936 0.31452668
-0.0636153 -0.23736282 0.39992294 -0.3699348 0.21506886 0.37559417 -0.26123872 -0.13124983
0.28981155 -0.05077402 -0.1117078 0.022113886 -0.22869353 0.044827696 0.2656299 -0.17313656
-0.26906964 0.0706307 -0.15675756 -0.15405543 0.012421585 -0.26124948 -0.30302668 -0.3028642

arith.constant1 f4 [64, 128]
00000000: e8df a2bd 39c6 1abe 17ae 82bb 77c4 6cbd
00000010: db90 69bd 4487 d53c 5174 ccbd 1129 2f3e
00000020: 4e2d b83d 8c1b 593e 1e3f 07bd a240 a0bb
00000030: c4f3 bf3d bd61 f43d 7f52 b73d 0d5a 363d
00000040: 2a4f ebbd 739e 253e d83e 143e 99d4 a23d
00000050: bd56 433d b536 bd3c 390b 93bd a263 9a3d
00000060: c8e6 0fbe 8036 b9bd 598c b43d 16e7 2e3c
00000070: 1009 1d3d c012 c53d 0b06 28bc 9e83 10bc
00000080: 9988 ecbd d1d3 ce3d 98e6 963d b672 b03c
00000090: 3481 9d3b e1f2 413e aaf4 1abd fb6e 723a
000000a0: a86f 2fbe 1de6 a7bd f0ef c4bd ba17 f3bd
000000b0: 806a d33d 613d 55bd 210a 4e3e 8e90 96bd
000000c0: d5d6 823d 7829 223e f02c 14bc f704 e1bd
000000d0: e999 b7bc 8b17 293e 214d a03d 15aa d73d
000000e0: d63e 18bc fb92 b43c 83f1 383e b110 123e
000000f0: 7c85 97bd 233c 223e 1e33 d03d d64e 203d
00000100: 0cf4 173e 7456 8b3d 8b0e b23d 41a5 a63d
00000110: 59c0 e63d c6ad f6bd 3d67 923d 004e 893d
00000120: 5acc c23c 1ab8 25be 153c be3d 6c79 f8bd
00000130: 7bef 9bbb e52e 393e a821 333d ae49 5e3d
00000140: f1d1 e0bd 9c69 6ebd 06bf b9bd f8e4 563d
00000150: 5580 123e d3a7 f83c 4031 1ebe d2b4 3c3e
00000160: be05 263e 06f6 a23b 84f7 2d3b b552 183e
00000170: 313a 4a3d eaa5 0b3d 861c 4bbd 4ded d73d
00000180: 8f5e ffbd e539 163e 43b0 713d 6cb2 153e
00000190: 1f54 bd3b ddfa 5d3d c4c8 19be 1f7e a5bd
000001a0: 58c1 0abe 5baf 22be 3e4f c93d 2f31 05bd
000001b0: 078d 383e 565e e3bc 7edf fc3d da49 0dbd
000001c0: 1fa4 10be 6df5 0b3e f409 f2bd 7c84 efbc
000001d0: d321 013e 57ea 363e 09a9 093e 0fb3 e2bd
000001e0: 4aeb e73d fbbb 98bb 2c9e 7038 42b0 173e
000001f0: 0531 cd3a 75de 8fbd 5c35 d73a 4e92 073d
00000200: 9dfe 873d 38d6 ca3d 409e f8bb 36cc fb3d
00000210: 662c 85bd ec01 df3d 4d8e 37bd da05 a4bd
00000220: 7df9 47bd a50a 4abd 5a81 c93d 29b1 19be
00000230: d0e6 25bc d151 f73d 0760 02bd b193 c23d
00000240: 00c9 fcbb 0510 02be 7e3b 44bd 7b42 92bc
00000250: d891 373e 7a0f cb3d 68f4 dabd 7583 053d
00000260: c364 79bd d4f8 a83d 692c 303e f436 8fbd
00000270: 87da a1bc 3372 4a3d 25b3 863d df7c 4e3d
00000280: 83dd bcbd 4687 03bd c6eb 01be 16f4 c53c
00000290: ac00 183e 8c90 0bbe 9c46 cd3d 4a56 c23d
000002a0: 35ea 5abb e4a1 f33b d783 26be 749a e2bd
000002b0: e3fb ba3c c4fb 10be 5f98 a0bd 4d60 febd
000002c0: 7c7c 893b f589 a2bc ba01 de3b 21d7 1dbe
000002d0: 11eb c63d 3b0e e1bd 7976 a33d 2fae 80bd
000002e0: b894 b53d 0f4f 263d d9ef df3d 46cf 2d3e
000002f0: 8c1b 1c3d c4f2 08be 587a 333d ba64 14be
00000300: d0d6 39bd 275b 203e cd40 ecbd 5ed4 103c
00000310: fa14 c73c 7309 30be d7b1 263e 5dff 5d3d
00000320: 6634 243b 1511 0d3e 3eec dfbd 7188 a7bc
00000330: f94d ff3d c63a 0cbc af13 04bd a413 20be
00000340: fe56 cd3c cb04 063d a6d2 a03d 8441 13be
00000350: fa6b bd3d ed54 febd dc13 e63c 3045 853d
00000360: e305 09be 89be 123e b727 5b3c 64dd 26be
00000370: 9f07 b6bb 45cd ecbd ec68 1d3e 9e29 903c
00000380: 7cb8 bb3d bcf7 f23d 1509 cab9 7acc 7cbd
00000390: b028 c23d 199d 973d 9640 b0bc ab3e 2abe
000003a0: b9a2 c3bd 1f48 203e 7fbb eabd b6fa b0bd
000003b0: d0cd ee3d 7c25 3a3d 07b3 3d3d 08fa 9a3c
000003c0: 92f7 babd 56db cb3d 413e 1b3e 2c71 d8bd
000003d0: 5a99 093c 2718 b937 14dd b7bd 610f 2ebe
000003e0: 3d81 d33d 4945 b63d d334 2bbc 01ec 03be
000003f0: 37e5 26be 43fc 043d 1dfb 08be 8ebe cb3d
-0.07952863 -0.15114678 -0.0039880383 -0.05780455 -0.05702291 0.026065476 -0.09983123 0.1710551
0.08993016 0.21201915 -0.033019178 -0.0048905173 0.093726665 0.119327046 0.08951282 0.044519473
-0.11489709 0.16173725 0.14477098 0.07950706 0.047690142 0.023097375 -0.07179875 0.07538535
-0.1405288 -0.09043598 0.08815832 0.010675212 0.03833872 0.09622717 -0.010255347 -0.0088204425
-0.115494914 0.100989945 0.07368201 0.021539073 0.004806662 0.18940307 -0.037830986 0.0009248105
-0.17132437 -0.081981875 -0.09616077 -0.1186976 0.10323048 -0.05206049 0.20121051 -0.0735179
0.06388632 0.15836132 -0.009043917 -0.10987275 -0.022412257 0.16512887 0.07827211 0.105304874
-0.009292325 0.022042742 0.1806088 0.1426418 -0.07398507 0.15843253 0.10166 0.039137684
0.1483919 0.06803599 0.0869418 0.081369884 0.11267156 -0.120448634 0.071485974 0.067043304
0.023779083 -0.1618351 0.092888035 -0.121325344 -0.004758773 0.18084295 0.04373327 0.054269485
-0.10977543 -0.058206186 -0.09069638 0.052464455 0.14306767 0.030353462 -0.15448475 0.18428352
0.16213128 0.004973176 0.0026545236 0.148753 0.049371902 0.034093775 -0.04958775 0.105433084
-0.124692075 0.14670523 0.059005987 0.14618844 0.0057778503 0.05419432 -0.15017992 -0.08080696
-0.13550317 -0.15887205 0.098295674 -0.03251761 0.18022548 -0.027754944 0.12347315 -0.03449426
-0.14125107 0.13667841 -0.11818305 -0.029237978 0.12610559 0.17862831 0.13443388 -0.11069309
0.11324175 -0.004661081 5.7367768e-05 0.14813331 0.0015654868 -0.07024852 0.00164191 0.03309851
0.066403605 0.0990414 -0.0075872242 0.122948095 -0.06502609 0.108890384 -0.044813443 -0.080089286
-0.048821915 -0.049326558 0.09839125 -0.15008987 -0.010125831 0.12076152 -0.03182986 0.09500826
-0.0077143908 -0.12701423 -0.0479083 -0.017853966 0.17926729 0.09915061 -0.10691148 0.03259607
-0.06088711 0.08250585 0.17204441 -0.06992903 -0.019757522 0.049425315 0.06577138 0.050412055
-0.092219375 -0.03211143 -0.12687597 0.02416424 0.14844006 -0.13629359 0.10023233 0.094891146
-0.0033403758 0.0074350704 -0.1626123 -0.11064616 0.022825187 -0.14158541 -0.078415625 -0.12420712
0.004195748 -0.019841174 0.006775108 -0.15414096 0.09712804 -0.10989042 0.07981581 -0.06283223
0.088662565 0.04060274 0.10934419 0.169736 0.03811221 -0.13373858 0.043817848 -0.14491549
-0.045370877 0.15659772 -0.11535797 0.008839695 0.024301995 -0.17191105 0.16278778 0.05419861
0.0025055646 0.13776048 -0.109337315 -0.020450803 0.12466044 -0.008558935 -0.032245334 -0.15632492
0.025065895 0.032719415 0.07852678 -0.14380461 0.092491105 -0.12418542 0.028085642 0.06507337
-0.13381152 0.14330496 0.013376168 -0.16295391 -0.0055551077 -0.115625896 0.15372056 0.01759797
0.09166047 0.11863658 -0.0003853521 -0.06171844 0.09480417 0.07403011 -0.021515172 -0.16625468
-0.09552521 0.15652512 -0.11461543 -0.08641569 0.11660349 0.045445904 0.046313312 0.018918052
-0.091292515 0.099539444 0.15160467 -0.10568461 0.008398378 2.2064965e-05 -0.08977714 -0.16998054
0.103273846 0.08899934 -0.010449606 -0.12882997 -0.16298376 0.032467138 -0.13377042 0.09948455

arith.constant2 f4 [128, 12]
00000000: 1943 e6bd 1d24 20be fed2 663d 0254 d5bd
00000010: 78d4 a9b6 3908 a3bd 74fb 0abe 69c0 8dbe
00000020: d18d 6cbc 848d 83bd 026f 653e 0014 8fbe
00000030: 8349 2e3e 4b67 ab3d 7b13 2c3e 0654 63bd
00000040: 2cf7 43be 4008 513e 5a5b 02bd 7c5d 633d
00000050: 8ed8 ce3d 5fe6 f3bd b9ae 2cbe c00a 5ebd
00000060: 4060 46be 58c7 abbd fbcc 763d 1978 b2bd
00000070: 56b2 43be a5a0 7fbb 9b67 fc3d 74c6 983c
00000080: b79a 743c cdb8 48bd abc2 17be bc74 ea3d
00000090: c85d 3f3d 621c d1bd ed1e 7cbe 5ed0 293d
000000a0: 3603 ac3d 4576 303d bd3b 79be c25c eebd
000000b0: b93a f5bc 00e7 543d a58b 4b3e 3a70 a6bd
000000c0: 2af3 843e befa 443e 7351 303d e84f 1e3d
000000d0: a4da abbd e09e f1bd b0b0 463e 1e55 46be
000000e0: 2045 dabd 332d a83d 9512 f73d 5d9a ba3b
000000f0: a565 35bd 5ecb b5bd 8299 803d 2658 2bbd
00000100: 799d 5b3e 1c79 3e3e 9db2 ab3c 2b4e 07be
00000110: 883f b3bd f3d5 4ebe d982 30be ad06 ce3d
00000120: f460 e73d 9864 13be c995 eb3d 6ab3 163d
00000130: fa20 2b3d 77be edbd 819a f63d 6452 8bbe
00000140: cda7 ad3c a691 bd3d e1cf 0a3e d133 763d
00000150: 056a f93d 06ef bb3d 359c e9bd 6f2e e9bd
00000160: ab53 a13d b10e 6c3b 8282 e3bd 8931 0cbe
00000170: 6369 80bd ea64 1a3e afbb 2b3d 4acd 18be
00000180: 63bc 873d a918 c1bd 118f 0abe 8c8f 8d3d
00000190: 9211 a0bc 6315 c2bd ccc8 cd3c 904c 11be
000001a0: 5d3a 14bd 9568 efbd 4fd2 39be 820b 4dbe
000001b0: 8c41 54bd e071 54bd 2b08 b0be bad1 cbbc
000001c0: 07d7 c5bc 20d9 1dbc ea6f 13be effd 213c
000001d0: 1b0d c0bd ca1c 363e d074 3dbe db9c 5cbd
000001e0: 835c 91bd a27f 48bc def6 2c3e 994b 1cbe
000001f0: b468 87bd 9639 ad3d f47a 44bd 4b6b 663d
00000200: c175 473d 535f 12be 632e 233e 73c5 183e
00000210: 51d7 19bc b5a7 c7bc 315f 94bc 092e 553e
00000220: 88a7 62be 606d bcbd faef b23d 6460 83bd
00000230: 2207 a53d 258d db3d 2d57 4abe 77f5 7e3d
00000240: 0c5c edbb ea20 493e 8543 93be ba23 d9bd
00000250: 075a 1c3e 9965 08be da20 f4bb 2969 3dbe
00000260: 3581 74bc 7898 e2bd bff8 c23d cc8e e23c
00000270: 67aa fc3c e053 bb3c 1a3b efbc 93ac 2bbe
00000280: cbcb 49be bb13 81bd 1395 bf3d f5b2 653e
00000290: 19e9 e93d 7484 c4bd b6ce 67be 4ffd 38bd
000002a0: ca0b e7bc ece3 4dbe 9502 8ebd ecd1 b1bd
000002b0: f98f 0bbe bc3f 073d 8bdb 1ebe 91f7 dcbb
000002c0: 6fd9 71be 8f16 8dbd 4212 47bc d1a3 79bd
000002d0: 6eeb 2fbd 7282 31be edf7 83bd bf52 e8bd
000002e0: 86f6 b13d dad1 c6bb 82b2 803c 80c8 5bbe
000002f0: 0b2e e23d a774 2dbc 5440 da3c 4111 0dbe
00000300: 7a7d 383e 164c 443d 02f7 7c3d 214e 1ebe
00000310: 3338 e1bd 1369 8d3d 4d8d ccbc 23fc 0ebe
00000320: 0159 493e 9fda 873d 279e adbd ca97 19be
00000330: d719 1bbd c2af 233e 077c 54bc 98f7 333e
00000340: c61c 24be d129 14bd b5e6 c13d cf49 fc3c
00000350: 638f 2fbc a60b a3bd 00de 8c3d 6025 0fbe
00000360: 66f3 7e3c c602 1bbe 7418 84bc c0bd d2bd
00000370: 58f2 cc3c 14ab a9bd 0510 72bb 85a1 39bc
00000380: 9546 e6bd 8912 8c3d 0015 843e 75d4 b83d
00000390: 41ad 79bd 649c fdbb 6580 fdbd 11b7 293e
000003a0: 7da0 61bd 89e6 82bd bcb2 8ebd f489 a5bd
000003b0: 6330 32be 03a9 e43d ce38 483d 297d f1bc
000003c0: f380 693d 147b e5bc f468 86be 5373 123c
000003d0: b7a3 893d 1de9 263e 967f 97bd 27e8 073d
000003e0: 547b 6c3e 1578 9f3d fc3c 1abe 7b03 cebc
000003f0: ec4e cabc 5204 85be afe7 fcbd 2181 adbd
-0.112432666 -0.15638776 0.05635356 -0.10416414 -5.061327e-06 -0.07960553 -0.13572484 -0.2768586
-0.014438109 -0.06423476 0.22405627 -0.27944946 0.1702023 0.08369311 0.16804306 -0.055500053
-0.19137257 0.20413303 -0.0318254 0.055509076 0.10099898 -0.11909174 -0.16863526 -0.05420947
-0.19372654 -0.08387631 0.06025408 -0.08714313 -0.19110999 -0.0039005664 0.12324449 0.018649317
0.014929465 -0.049004365 -0.14820354 0.114480466 0.046720296 -0.10210492 -0.24621172 0.04145848
0.0839905 0.04308154 -0.24339195 -0.11638786 -0.029935228 0.05197811 0.19877489 -0.08126874
0.2596677 0.19236276 0.043046426 0.038650423 -0.08391312 -0.11797881 0.19403338 -0.19368407
-0.10657716 0.08211746 0.12064091 0.005694671 -0.04428639 -0.0887668 0.06279279 -0.04183211
0.2144679 0.18600887 0.020959193 -0.13213412 -0.08752352 -0.20198803 -0.17237414 0.10059867
0.11297789 -0.14393842 0.115031786 0.036792196 0.041779496 -0.11608594 0.12041188 -0.27211297
0.021198178 0.09256296 0.13555862 0.06010801 0.12178425 0.091764495 -0.11406747 -0.1138581
0.078772865 0.00360195 -0.11108877 -0.13690771 -0.06270101 0.15077558 0.041927036 -0.14922062
0.06627729 -0.09428532 -0.13531138 0.06912145 -0.019539628 -0.094767354 0.025120161 -0.14189363
-0.036188472 -0.11689869 -0.18146633 -0.20023921 -0.051820323 -0.051866412 -0.34381232 -0.024880279
-0.024150385 -0.009634286 -0.1439816 0.009887203 -0.093775 0.1778442 -0.18501592 -0.053860527
-0.07097723 -0.012237461 0.16891047 -0.15263213 -0.066117674 0.08458249 -0.04796882 0.056254666
0.048696283 -0.14294176 0.15935664 0.14919071 -0.009389714 -0.024371961 -0.018111797 0.20818342
-0.2213422 -0.09200549 0.08737178 -0.064148694 0.08058001 0.107202806 -0.19759817 0.062245812
-0.007243639 0.19641462 -0.2876245 -0.106025174 0.15268718 -0.13320006 -0.0074502053 -0.18497147
-0.0149233835 -0.11064237 0.09520101 0.027655981 0.030842973 0.022867143 -0.029202987 -0.1676505
-0.19706647 -0.063025914 0.093546055 0.22431548 0.11421413 -0.09595576 -0.22637448 -0.04516345
-0.028203864 -0.20106477 -0.06934086 -0.086826175 -0.1362914 0.033019766 -0.15513436 -0.0067433794
-0.236181 -0.06889068 -0.012150349 -0.060947243 -0.042949133 -0.17334917 -0.064437725 -0.113439076
0.08689599 -0.0060674967 0.01571012 -0.21463203 0.11043938 -0.010586894 0.026642002 -0.13776113
0.18016616 0.047924124 0.061759003 -0.15459491 -0.10997047 0.06904807 -0.024969721 -0.1396337
0.19662859 0.066334955 -0.08477431 -0.14999309 -0.03786644 0.15985015 -0.012969024 0.17574918
-0.16026601 -0.03617269 0.09467832 0.030796913 -0.010715338 -0.07961206 0.06878281 -0.13979101
0.01556096 -0.15137777 -0.016124941 -0.10290098 0.025017902 -0.08284584 -0.0036935818 -0.011330013
-0.11243931 0.06839473 0.25797272 0.09024898 -0.060956243 -0.0077395905 -0.12378005 0.1657374
-0.055084694 -0.06391627 -0.069676846 -0.08082953 -0.1740127 0.11165049 0.0488823 -0.029478626
0.05700774 -0.02801279 -0.26251948 0.008938628 0.06720679 0.16299863 -0.07397382 0.033180382
0.23093921 0.07786576 -0.15062326 -0.025148144 -0.024695836 -0.2597986 -0.12348878 -0.08471895

arith.constant29 f4 [64]
00000000: 4c1b 863d 4e8e 3aba 368a 02bc 3c6e 913c
00000010: 12f3 9bbd 79af 923d b8f9 19bd 01c9 5bbd
00000020: 5837 c13d b640 dc3d 3ec1 30bd d9b2 273d
00000030: 9fea 22bb f3fa 3dbd 912d 5e3d 2d1d e6bc
00000040: 663c c73d eaa4 cfbd ab56 6abd 3259 a73d
00000050: 0bda 663d 155c 423c f4f5 983b 73bd bcbc
00000060: 118c 65bd c5b7 b93c 8540 1cbc d9e1 113b
00000070: 2a67 a13d b600 173d ecc9 bdba 8d9c 1fbd
00000080: 43d7 e7bc 0eec 8cbd ddf4 1ebc 118d cd3c
00000090: 3fa4 1fbc 6e10 9a3c eee1 28bd 4da7 20bd
000000a0: 4d87 68bd 8344 a6bc e6aa f23d 2ae2 0abd
000000b0: abda 81bc e63d e93d 6d67 31bd fcd1 b8bb
000000c0: 7500 f63d 3181 1ebd 7c8d 43bc 0857 e1bb
000000d0: 0df9 9ebd d3b4 0fbd 8d03 a03d a7ce 4fbc
000000e0: d0b6 3dbd e3f2 f3bc cba4 24bd 0f7a 6cbd
000000f0: a249 f3bc d359 bdbd ee41 febc 0000 0000
0.06548175 -0.0007116542 -0.007967522 0.01775276 -0.07614721 0.07162375 -0.037591666 -0.05365849
0.09434384 0.1075453 -0.04315304 0.040942047 -0.0024859083 -0.046381902 0.054242674 -0.028090084
0.09728317 -0.10138877 -0.05721156 0.081713095 0.056360286 0.011862774 0.004667992 -0.023039555
-0.05604178 0.022670636 -0.009536867 0.002225986 0.07881005 0.036865912 -0.0014479733 -0.038967658
-0.028300887 -0.06880961 -0.009701935 0.02509168 -0.009743749 0.018806662 -0.04123109 -0.03922205
-0.056769658 -0.02029634 0.118490025 -0.033907093 -0.01585134 0.11388759 -0.043311525 -0.0056402665
0.12011806 -0.038697425 -0.011935588 -0.00687683 -0.077623464 -0.035084557 0.07813177 -0.012683547
-0.04631692 -0.029778903 -0.04019622 -0.05773359 -0.029698197 -0.09245648 -0.031037297 0.0

arith.constant30 f4 [128]
00000000: aa10 543d 4260 463c 69ca e33c deb5 92bd
00000010: fcfb 743d 37cd 243d d4c5 4a3d 51a6 8c3c
00000020: 458a 113d 0d21 2cbe f496 043d 2f83 d7bc
00000030: c5fb 6e3d 10f2 fbbc 14b3 0dbd aa22 983d
00000040: 345c 613d be07 5c3d e82d 123e 7ada 6c3d
00000050: a040 64be 5a4b 0bbd 13d8 f73c 3c68 0c3d
00000060: e017 543d 744d ecbc 2296 9bbb 029f 153d
00000070: e7bd 80bd f5d3 6c3d 55fb 5d3c 9993 03be
00000080: 1349 67bd 4d3b 523d 25fe 97bd c695 22bc
00000090: ce95 acba 64cc 80bd ccb2 343d d93a 9d3d
000000a0: 901c afbd 0dd0 32bd a81d 99bd 34bd 0d3d
000000b0: e07f 053c 5a1b aabc 4a07 9e3d a0b6 18be
000000c0: d9cd b1bc 7da6 f9bd 04a2 833d 93dc fa3c
000000d0: 1346 5bbc 5d0a 73bb fd57 7dbd 673a 163d
000000e0: eae0 5dbc 4b5c 03be 2603 62bb 78cf 463c
000000f0: 8018 78bd 8848 843d ce10 9cbc b1bf 96bd
00000100: b45c d23c 90ff d0bd 7739 073d 2808 903c
00000110: 3a95 ac3c d04f 0cbc 474b ba3c 3399 8fbc
00000120: 5b12 2dbd 7896 53bb 752b 01bd 8b95 b73d
00000130: 62ca abbc 38ed c8bc 5d7d 25bc 0b6c 9dbc
00000140: 7b2d e0bc 0b61 fb3c 5979 7cbd 2df0 a3bd
00000150: cee1 50bd 6b17 94bc 9daa 77bd ceb2 1b3d
00000160: b49e 87bd 160a d63c 108f 373c 81ba 1fbe
00000170: 583f 7ebd 9b31 893c 0a4c a13c 203b 043c
00000180: 2aa4 53bd 6eb0 91bb 6fc9 f1bd 3320 d83c
00000190: 4bc9 c03c 99f8 f33d 14b7 f43b 331a 2fbc
000001a0: 8f0d 92bd 72b4 14bd 1437 043d 2e85 97bd
000001b0: 45a8 52bd d7b7 4dbd 4017 9abd 5db3 d4bb
000001c0: d72e 09bd ad6f 1fbc af3c 043d f2b5 ee3c
000001d0: da7d 0fbd cc1f dd3d 0829 49bc 8419 eb3b
000001e0: bfa0 94bc 402c 26bd d9b4 8cbc bbc5 d0bd
000001f0: 8197 8cbd bc1f 163d 629f d03c 9d08 ce3c
0.051773705 0.012107911 0.027806478 -0.07163595 0.059810624 0.04023477 0.04950507 0.01716915
0.035532255 -0.16809483 0.032370523 -0.02630767 0.058345575 -0.030755073 -0.03459461 0.07428487
0.055019572 0.05371832 0.14275324 0.057825543 -0.22290277 -0.034007408 0.0302544 0.034279093
0.05178058 -0.028845526 -0.004748122 0.036528595 -0.06286221 0.057819325 0.013548692 -0.12849273
-0.056466173 0.051326085 -0.07421521 -0.009923404 -0.0013167204 -0.062889844 0.044115826 0.0767724
-0.0855037 -0.043655444 -0.074763596 0.034604266 0.008148164 -0.020764995 0.07716234 -0.14913416
-0.021704601 -0.12189958 0.064273864 0.030622756 -0.013383406 -0.0037085034 -0.06185149 0.03667679
-0.013542393 -0.12828176 -0.003448674 0.012134425 -0.06057024 0.06459147 -0.019050982 -0.07360781
0.02567897 -0.10204995 0.033013787 0.017582014 0.02106725 -0.008563951 0.022740973 -0.017529106
-0.042253833 -0.0032285731 -0.031535584 0.0896407 -0.020970527 -0.024527177 -0.01010069 -0.019216558
-0.027365437 0.030685922 -0.061639164 -0.08004794 -0.050996594 -0.018077573 -0.060465444 0.03801232
-0.06622067 0.026127856 0.011203542 -0.1559849 -0.062072128 0.016747287 0.019689579 0.008070737
-0.05167023 -0.004446081 -0.118059985 0.026382541 0.023533484 0.119126506 0.0074681137 -0.010687399
-0.07131492 -0.0363049 0.03227909 -0.07398449 -0.051430006 -0.05022415 -0.07523966 -0.0064911083
-0.033491936 -0.009731215 0.032284435 0.029139493 -0.03503213 0.107970804 -0.012277849 0.0071746726
-0.018143056 -0.040569544 -0.017176079 -0.10193964 -0.068648346 0.036651358 0.025466625 0.025150592
